…
____________________________________________________________________________________________________
conv2d_19 (Conv2D)               (None, 1, None, 13)   289         activation_12[0][0]
____________________________________________________________________________________________________
lambda_2 (Lambda)                (None, None, 13)      0           conv2d_19[0][0]
____________________________________________________________________________________________________
bidirectional_1 (Bidirectional)  (None, None, 64)      11776       lambda_2[0][0]
____________________________________________________________________________________________________
soft_attention_1 (SoftAttention) (None, 64)            4224        bidirectional_1[0][0]
____________________________________________________________________________________________________
dense_1 (Dense)                  (None, 32)            2080        soft_attention_1[0][0]
____________________________________________________________________________________________________
batch_normalization_12 (BatchNor (None, 32)            128         dense_1[0][0]
____________________________________________________________________________________________________
activation_13 (Activation)       (None, 32)            0           batch_normalization_12[0][0]
____________________________________________________________________________________________________
dropout_1 (Dropout)              (None, 32)            0           activation_13[0][0]
____________________________________________________________________________________________________
dense_2 (Dense)                  (None, 32)            1056        dropout_1[0][0]
____________________________________________________________________________________________________
batch_normalization_13 (BatchNor (None, 32)            128         dense_2[0][0]
____________________________________________________________________________________________________
activation_14 (Activation)       (None, 32)            0           batch_normalization_13[0][0]
____________________________________________________________________________________________________
input_2 (InputLayer)             (None, 1)             0
____________________________________________________________________________________________________
input_3 (InputLayer)             (None, 1)             0
____________________________________________________________________________________________________
dropout_2 (Dropout)              (None, 32)            0           activation_14[0][0]
____________________________________________________________________________________________________
concatenate_1 (Concatenate)      (None, 34)            0           input_2[0][0]
                                                                   input_3[0][0]
                                                                   dropout_2[0][0]
____________________________________________________________________________________________________
discriminator_output (Dense)     (None, 1)             35          concatenate_1[0][0]
====================================================================================================
Total params: 128,516
Trainable params: 127,684
Non-trainable params: 832
____________________________________________________________________________________________________
INFO: Loading weights of /xxx
2017-10-02 23:13:19.026704: W tensorflow/core/platform/cpu_feature_guard.cc:45] The TensorFlow library wasn't compiled to use SSE4.1 instructions, but these are available on your machine and could speed up CPU computations.
…
____________________________________________________________________________________________________
conv2d_114 (Conv2D)              (None, 1, None, 13)   289         activation_82[0][0]
____________________________________________________________________________________________________
lambda_12 (Lambda)               (None, None, 13)      0           conv2d_114[0][0]
____________________________________________________________________________________________________
bidirectional_6 (Bidirectional)  (None, None, 64)      11776       lambda_12[0][0]
____________________________________________________________________________________________________
soft_attention_6 (SoftAttention) (None, 64)            4224        bidirectional_6[0][0]
____________________________________________________________________________________________________
dense_11 (Dense)                 (None, 32)            2080        soft_attention_6[0][0]
____________________________________________________________________________________________________
batch_normalization_77 (BatchNor (None, 32)            128         dense_11[0][0]
____________________________________________________________________________________________________
activation_83 (Activation)       (None, 32)            0           batch_normalization_77[0][0]
____________________________________________________________________________________________________
dropout_11 (Dropout)             (None, 32)            0           activation_83[0][0]
____________________________________________________________________________________________________
dense_12 (Dense)                 (None, 32)            1056        dropout_11[0][0]
____________________________________________________________________________________________________
batch_normalization_78 (BatchNor (None, 32)            128         dense_12[0][0]
____________________________________________________________________________________________________
activation_84 (Activation)       (None, 32)            0           batch_normalization_78[0][0]
____________________________________________________________________________________________________
input_17 (InputLayer)            (None, 1)             0
____________________________________________________________________________________________________
input_18 (InputLayer)            (None, 1)             0
____________________________________________________________________________________________________
dropout_12 (Dropout)             (None, 32)            0           activation_84[0][0]
____________________________________________________________________________________________________
concatenate_6 (Concatenate)      (None, 34)            0           input_17[0][0]
                                                                   input_18[0][0]
                                                                   dropout_12[0][0]
____________________________________________________________________________________________________
discriminator_output (Dense)     (None, 1)             35          concatenate_6[0][0]
====================================================================================================
Total params: 128,516
Trainable params: 127,684
Non-trainable params: 832
____________________________________________________________________________________________________
INFO: Loading weights of /xxx
INFO: Saved used model to /xxx
____________________________________________________________________________________________________
Layer (type)                     Output Shape          Param #     Connected to
====================================================================================================
input_19 (InputLayer)            (None, 32)            0
____________________________________________________________________________________________________
input_20 (InputLayer)            (None, 1)             0
____________________________________________________________________________________________________
input_21 (InputLayer)            (None, 32)            0
____________________________________________________________________________________________________
input_22 (InputLayer)            (None, 1)             0
____________________________________________________________________________________________________
input_23 (InputLayer)            (None, 32)            0
____________________________________________________________________________________________________
input_24 (InputLayer)            (None, 1)             0
____________________________________________________________________________________________________
concatenate_7 (Concatenate)      (None, 99)            0           input_19[0][0]
                                                                   input_20[0][0]
                                                                   input_21[0][0]
                                                                   input_22[0][0]
                                                                   input_23[0][0]
                                                                   input_24[0][0]
____________________________________________________________________________________________________
dense_13 (Dense)                 (None, 80)            8000        concatenate_7[0][0]
____________________________________________________________________________________________________
batch_normalization_79 (BatchNor (None, 80)            320         dense_13[0][0]
____________________________________________________________________________________________________
leaky_re_lu_1 (LeakyReLU)        (None, 80)            0           batch_normalization_79[0][0]
____________________________________________________________________________________________________
dropout_13 (Dropout)             (None, 80)            0           leaky_re_lu_1[0][0]
____________________________________________________________________________________________________
dense_14 (Dense)                 (None, 64)            5184        dropout_13[0][0]
____________________________________________________________________________________________________
batch_normalization_80 (BatchNor (None, 64)            256         dense_14[0][0]
____________________________________________________________________________________________________
leaky_re_lu_2 (LeakyReLU)        (None, 64)            0           batch_normalization_80[0][0]
____________________________________________________________________________________________________
dropout_14 (Dropout)             (None, 64)            0           leaky_re_lu_2[0][0]
____________________________________________________________________________________________________
dense_15 (Dense)                 (None, 48)            3120        dropout_14[0][0]
____________________________________________________________________________________________________
batch_normalization_81 (BatchNor (None, 48)            192         dense_15[0][0]
____________________________________________________________________________________________________
leaky_re_lu_3 (LeakyReLU)        (None, 48)            0           batch_normalization_81[0][0]
____________________________________________________________________________________________________
input_25 (InputLayer)            (None, 1)             0
____________________________________________________________________________________________________
input_26 (InputLayer)            (None, 1)             0
____________________________________________________________________________________________________
dropout_15 (Dropout)             (None, 48)            0           leaky_re_lu_3[0][0]
____________________________________________________________________________________________________
concatenate_8 (Concatenate)      (None, 50)            0           input_25[0][0]
                                                                   input_26[0][0]
                                                                   dropout_15[0][0]
____________________________________________________________________________________________________
dense_16 (Dense)                 (None, 1)             51          concatenate_8[0][0]
====================================================================================================
Total params: 17,123
Trainable params: 16,739
Non-trainable params: 384
____________________________________________________________________________________________________
Epoch 1/250
882/882 [==============================] - 1513s - loss: 0.5807 - acc: 0.7140 - val_loss: 0.5083 - val_acc: 0.7756
…
