…
____________________________________________________________________________________________________
conv2d_19 (Conv2D)               (None, 1, None, 13)   289         activation_12[0][0]
____________________________________________________________________________________________________
lambda_2 (Lambda)                (None, None, 13)      0           conv2d_19[0][0]
____________________________________________________________________________________________________
bidirectional_1 (Bidirectional)  (None, None, 64)      11776       lambda_2[0][0]
____________________________________________________________________________________________________
soft_attention_1 (SoftAttention) (None, 64)            4224        bidirectional_1[0][0]
____________________________________________________________________________________________________
dense_1 (Dense)                  (None, 32)            2080        soft_attention_1[0][0]
____________________________________________________________________________________________________
batch_normalization_12 (BatchNor (None, 32)            128         dense_1[0][0]
____________________________________________________________________________________________________
activation_13 (Activation)       (None, 32)            0           batch_normalization_12[0][0]
____________________________________________________________________________________________________
dropout_1 (Dropout)              (None, 32)            0           activation_13[0][0]
____________________________________________________________________________________________________
dense_2 (Dense)                  (None, 32)            1056        dropout_1[0][0]
____________________________________________________________________________________________________
batch_normalization_13 (BatchNor (None, 32)            128         dense_2[0][0]
____________________________________________________________________________________________________
activation_14 (Activation)       (None, 32)            0           batch_normalization_13[0][0]
____________________________________________________________________________________________________
input_2 (InputLayer)             (None, 1)             0
____________________________________________________________________________________________________
input_3 (InputLayer)             (None, 1)             0
____________________________________________________________________________________________________
dropout_2 (Dropout)              (None, 32)            0           activation_14[0][0]
____________________________________________________________________________________________________
concatenate_1 (Concatenate)      (None, 34)            0           input_2[0][0]
                                                                   input_3[0][0]
                                                                   dropout_2[0][0]
____________________________________________________________________________________________________
discriminator_output (Dense)     (None, 1)             35          concatenate_1[0][0]
====================================================================================================
Total params: 128,516
Trainable params: 127,684
Non-trainable params: 832
____________________________________________________________________________________________________
____________________________________________________________________________________________________
…
